…
Average actions of users: 1.1299177678558006
The number of items: 21733
Average actions of items: 3.4583812635163116
The number of inters: 75161
The sparsity of the dataset: 99.99480091212509%
Wed 13 Mar 2024 09:32:28 INFO 

=================================


Wed 13 Mar 2024 09:32:28 INFO =========1/1: Parameters:['mm_text_weight', 'k', 'u_layers', 'n_mm_layers', 'knn_k', 'aggr_mode', 'reg_weight', 'learning_rate', 'alpha_item', 'alpha_high_item', 'alpha_sem', 'alpha_image', 'seed']=(0.6, 30, 1, 1, 10, 'add', 0.1, 0.0001, 0.1, 0.1, 0.1, 0.1, 999)=======
Wed 13 Mar 2024 09:33:00 INFO MODEL(
  (MLP_v): Linear(in_features=64, out_features=64, bias=False)
  (MLP_t): Linear(in_features=64, out_features=64, bias=False)
  (image_embedding): Embedding(28237, 4096)
  (text_embedding): Embedding(28237, 384)
  (i2t_embedding): Embedding(28237, 384)
  (v_gcn): GCN(
    (MLP): Linear(in_features=4096, out_features=256, bias=True)
    (MLP_1): Linear(in_features=256, out_features=64, bias=True)
    (conv_embed_1): Base_gcn(64, 64)
  )
  (t_gcn): GCN(
    (MLP): Linear(in_features=384, out_features=256, bias=True)
    (MLP_1): Linear(in_features=256, out_features=64, bias=True)
    (conv_embed_1): Base_gcn(64, 64)
  )
  (i2t_gcn): GCN(
    (MLP): Linear(in_features=384, out_features=256, bias=True)
    (MLP_1): Linear(in_features=256, out_features=64, bias=True)
    (conv_embed_1): Base_gcn(64, 64)
  )
  (user_graph): User_Graph_sample()
)
Trainable parameters: 151619470
Wed 13 Mar 2024 09:34:16 INFO epoch 0 training [time: 76.20s, train loss: 97.7428]
Wed 13 Mar 2024 09:34:20 INFO epoch 0 evaluating [time: 1.89s, valid_score: 0.036400]
Wed 13 Mar 2024 09:34:20 INFO valid result: 
recall@10: 0.0230    recall@20: 0.0364    ndcg@10: 0.0120    ndcg@20: 0.0154    
…
