…
Fri 15 Mar 2024 09:24:29 INFO 
====Testing====
Electronics
The number of users: 192403
Average actions of users: 1.161369625213744
The number of items: 48833
Average actions of items: 4.575819630168124
The number of inters: 223451
The sparsity of the dataset: 99.99762175245179%
Fri 15 Mar 2024 09:24:55 INFO 

=================================


Fri 15 Mar 2024 09:24:55 INFO =========1/1: Parameters:['mm_text_weight', 'k', 'u_layers', 'n_mm_layers', 'knn_k', 'aggr_mode', 'reg_weight', 'learning_rate', 'seed']=(0.4, 30, 1, 1, 10, 'add', 0.1, 0.0001, 999)=======
Fri 15 Mar 2024 09:28:38 INFO MODEL(
  (MLP_v): Linear(in_features=64, out_features=64, bias=False)
  (MLP_t): Linear(in_features=64, out_features=64, bias=False)
  (image_embedding): Embedding(63001, 4096)
  (text_embedding): Embedding(63001, 384)
  (i2t_embedding): Embedding(63001, 384)
  (v_gcn): GCN(
    (MLP): Linear(in_features=4096, out_features=256, bias=True)
    (MLP_1): Linear(in_features=256, out_features=64, bias=True)
    (conv_embed_1): Base_gcn(64, 64)
  )
  (t_gcn): GCN(
    (MLP): Linear(in_features=384, out_features=256, bias=True)
    (MLP_1): Linear(in_features=256, out_features=64, bias=True)
    (conv_embed_1): Base_gcn(64, 64)
  )
  (i2t_gcn): GCN(
    (MLP): Linear(in_features=384, out_features=256, bias=True)
    (MLP_1): Linear(in_features=256, out_features=64, bias=True)
    (conv_embed_1): Base_gcn(64, 64)
  )
  (user_graph): User_Graph_sample()
)
Trainable parameters: 345258946
Fri 15 Mar 2024 09:40:07 INFO epoch 0 training [time: 688.07s, train loss: 204.2528]
Fri 15 Mar 2024 09:40:29 INFO epoch 0 evaluating [time: 10.17s, valid_score: 0.049900]
Fri 15 Mar 2024 09:40:29 INFO valid result: 
recall@10: 0.0318    recall@20: 0.0499    ndcg@10: 0.0168    ndcg@20: 0.0215    
…
