…
Average actions of users: 1.1150424273592183
The number of items: 5577
Average actions of items: 3.887753272368657
The number of inters: 21682
The sparsity of the dataset: 99.98000641155892%
Mon 18 Mar 2024 05:10:12 INFO 

=================================


Mon 18 Mar 2024 05:10:12 INFO =========1/25: Parameters:['mm_text_weight', 'k', 'u_layers', 'n_mm_layers', 'knn_k', 'aggr_mode', 'reg_weight', 'learning_rate', 'alpha_item', 'alpha_high_item', 'alpha_sem', 'alpha_image', 'seed']=(0.6, 30, 1, 1, 10, 'add', 0.001, 0.0001, 0.1, 0.1, 0.1, 0.1, 999)=======
Mon 18 Mar 2024 05:10:20 INFO MODEL(
  (MLP_v): Linear(in_features=64, out_features=64, bias=False)
  (MLP_t): Linear(in_features=64, out_features=64, bias=False)
  (image_embedding): Embedding(7050, 4096)
  (text_embedding): Embedding(7050, 384)
  (i2t_embedding): Embedding(7050, 384)
  (v_gcn): GCN(
    (MLP): Linear(in_features=4096, out_features=256, bias=True)
    (MLP_1): Linear(in_features=256, out_features=64, bias=True)
    (conv_embed_1): Base_gcn(64, 64)
  )
  (t_gcn): GCN(
    (MLP): Linear(in_features=384, out_features=256, bias=True)
    (MLP_1): Linear(in_features=256, out_features=64, bias=True)
    (conv_embed_1): Base_gcn(64, 64)
  )
  (i2t_gcn): GCN(
    (MLP): Linear(in_features=384, out_features=256, bias=True)
    (MLP_1): Linear(in_features=256, out_features=64, bias=True)
    (conv_embed_1): Base_gcn(64, 64)
  )
  (user_graph): User_Graph_sample()
)
Trainable parameters: 39386472
Mon 18 Mar 2024 05:10:25 INFO epoch 0 training [time: 4.83s, train loss: 37.2077]
Mon 18 Mar 2024 05:10:26 INFO epoch 0 evaluating [time: 0.48s, valid_score: 0.056500]
Mon 18 Mar 2024 05:10:26 INFO valid result: 
recall@10: 0.0362    recall@20: 0.0565    ndcg@10: 0.0185    ndcg@20: 0.0236    
…
